Assets/Hummingbird/Models/Hummingbird.onnx (onnx, 320960 bytes, 7 tensors)

network_body._body_endoder.seq_layers.0.weight f4 [256, 46]
0	0xbe482450	-0.19545102
1	0xbd8a9db0	-0.06768358
2	0x3d5f91b7	0.054582324
3	0x3e552c41	0.20817663
4	0xbdd79776	-0.10526936
5	0x3eb35d17	0.3503196
6	0xbc8cfa97	-0.017209334
7	0xbe275553	-0.16341142
8	0xbbf94314	-0.0076068733
9	0x3e034ecb	0.12823026
10	0xbe1dc64a	-0.15407673
11	0x3dd776f4	0.105207354
12	0xbdf15ace	-0.11784898
13	0xbd64b752	-0.05583889
14	0x3d10fb7d	0.035396088
15	0xbd34b35a	-0.044116355
16	0x3cadf177	0.021233303
17	0xbeec0ef3	-0.46105155
18	0x3e289f91	0.1646712
19	0x3c025c90	0.007956639
20	0x3e33e6b8	0.17568481
21	0x3d8f0792	0.06983866
22	0xbbd2b791	-0.006430574
23	0x3e3a3529	0.18184341
24	0xbdddded5	-0.108335175
25	0xbd7e6e5d	-0.06211697
26	0x3e93c181	0.2885857
27	0x3e3202cf	0.17383884
28	0xbe8703d5	-0.2637011
29	0xbca2b347	-0.019860877
30	0xbdf6c53c	-0.12049338
31	0x3cb41f89	0.021987693
32	0xbc2d0d9e	-0.010562329
33	0x3bdae826	0.0066805063
34	0x3df1912d	0.11795268
35	0xbd74ddae	-0.059781723
36	0xbd8e2f1d	-0.0694258
37	0x3d458801	0.048225407
38	0x3ebae6a9	0.36504105
39	0x3c126c71	0.008936987
40	0xbbca0784	-0.0061654467
41	0xbd8a8aee	-0.0676478
42	0x3e0a1606	0.13484964
43	0x3da6cf6b	0.081450306
44	0xbe190b3a	-0.14945689
45	0x3e86ad08	0.26303887
46	0x3e140c54	0.14457828
47	0x3e2da809	0.16958632
48	0xbdda24ff	-0.10651588
49	0x3da7c346	0.08191542
50	0xbd0237c6	-0.03179147
51	0x3e73faf7	0.23826204
52	0x3d59f823	0.053215157
53	0x3d5ba07f	0.053619858
54	0x3db9eb7d	0.09078119
55	0x3d863468	0.065529644
56	0x3dd82f41	0.10555888
57	0x3d5f986b	0.054588716
58	0x3dc56a72	0.096394435
59	0xbe93d1f8	-0.2887113
60	0x3dca213e	0.09869622
61	0x3c858ec5	0.01630343
62	0x3e13fcc0	0.14451885
63	0x3afa05d5	0.0019075224
64	0x3d198151	0.03747684
65	0x3e3944eb	0.18092696
66	0x3e6dc2de	0.23218867
67	0x3e51755f	0.2045493
68	0x3e55661c	0.20839733
69	0xbef56c54	-0.4793421
70	0xbe20d217	-0.15705143
71	0x3b49608f	0.003072772
72	0xbdcf84ed	-0.101327755
73	0xbe3c7124	-0.18402535
74	0x3dcd1969	0.10014612
75	0xbe55c12f	-0.20874475
76	0x3d6b0d4d	0.05738573
77	0xbcccfc5f	-0.025022684
78	0x3d414b6c	0.04719107
79	0xbd09bfce	-0.033630185
80	0xbd3642cc	-0.044497296
81	0xbdaa59d3	-0.08317914
82	0xbe227b68	-0.15867388
83	0xbc03d121	-0.008045466
84	0xbdb8e988	-0.090289176
85	0x3d21d65c	0.03951107
86	0xbdeb6b23	-0.11495044
87	0x3dcf4ce6	0.10122089
88	0xbd7b8586	-0.061406635
89	0xbe4d2169	-0.20032276
90	0x3d5a00ec	0.053223535
91	0x3d5816ad	0.052756
92	0x3e160d1d	0.1465344
93	0x3de6427a	0.11243148
94	0xbd299f7d	-0.041411866
95	0xbdde124b	-0.10843333
96	0xbcfb2025	-0.030654976
97	0xbd318061	-0.043335322
98	0x3e267f1e	0.16259429
99	0x3ca8c582	0.020601992
100	0xbd7ed721	-0.06221688
101	0x3e5c29c0	0.21500301
102	0xbe7b7948	-0.24557984
103	0xbe070396	-0.13184962
104	0xbe0aec8e	-0.13566801
105	0x3de21fba	0.110412076
106	0x3e2edad7	0.17075668
107	0xbc147c48	-0.009062834
108	0x3e418021	0.18896534
109	0x3e431deb	0.19054382
110	0x3da4c49d	0.080453135
111	0xbd64c6ce	-0.055853657
112	0xbe3fe7b7	-0.18740736
113	0x3e068bca	0.13139263
114	0x3db668d7	0.08906715
115	0xbeeaab61	-0.45833877
116	0xbc6d3f8e	-0.014480485
117	0xbe0ad2a1	-0.13556911
118	0xbe0dfdb2	-0.13866308
119	0xbd9541da	-0.07287951
120	0xbd3d9601	-0.046285633
121	0xbe8c3454	-0.27383673
122	0xbd3cb5fc	-0.04607199
123	0xbe3ebb5f	-0.18626164
124	0x3ddcc4c5	0.10779718
125	0x3e3b62af	0.18299364
126	0xbdbce71f	-0.0922377
127	0xbe0a9bf8	-0.1353606
128	0x3e3ec9e7	0.18631707
129	0xbc122b38	-0.008921437
130	0xba43d6fd	-0.00074706954
131	0xbe410114	-0.18848068
132	0xbe72c349	-0.23707308
133	0xbe636175	-0.22205146
134	0xbcccf0f2	-0.025017235
135	0xbd996249	-0.074894495
136	0x3e8f354e	0.27970356
137	0xbe5e1775	-0.21688636
138	0x3e1e1913	0.15439253
139	0x3d297b08	0.041377097
140	0x3ecb0730	0.3965392
141	0xbdab539f	-0.08365559
142	0xbe4299b7	-0.1900395
143	0xbe7b739e	-0.24555823
144	0xbdeb1b18	-0.11479777
145	0xbe1203ca	-0.14259258
146	0x3d965650	0.073406816
147	0xbc82e0b4	-0.015976287
148	0x3db84c13	0.08998885
149	0xbdd15e14	-0.10223022
150	0x3c07a6f8	0.008279555
151	0xbe464f27	-0.19366132
152	0xbe8238c9	-0.2543395
153	0xbd2c2997	-0.04203185
154	0x3e03ded1	0.12877966
155	0x3e27abb9	0.163741
156	0xbcdeef68	-0.027213767
157	0x3e680f31	0.22662045
158	0x3e1baff6	0.15203843
159	0xbd9820d3	-0.07428136
160	0xbe1367e6	-0.14395103
161	0x3d7488bf	0.059700724
162	0x3df071dd	0.11740468
163	0x3e0df0c7	0.1386138
164	0x3e0061ba	0.1253728
165	0x3e3bd7fb	0.18344109
166	0x3d87a6a4	0.06623581
167	0x3ce4dccd	0.027937317
168	0xbdc51b89	-0.096243925
169	0x3c44ff3c	0.012023743
170	0xbe90485a	-0.281802
171	0xbda8967a	-0.08231826
172	0xbe24b3ce	-0.16084215
173	0x3e25effa	0.16204825
174	0x3d932a6e	0.07185827
175	0xbe53b114	-0.20673019
176	0x3c43ffc4	0.011962835
177	0x3b25a853	0.002527733
178	0x3dfeec8e	0.12447463
179	0xbe1ce323	-0.15321021
180	0xbcacb12f	-0.021080581
181	0x3ea72e25	0.32652393
182	0x3ec4649d	0.38358012
183	0x3e297b6d	0.1655099
184	0xbd891ee2	-0.066953436
185	0x3db5018a	0.08838184
186	0x3e0d364e	0.13790247
187	0xbec45df3	-0.38352928
188	0xbea5ef68	-0.32409215
189	0x3d304dce	0.04304295
190	0x3d1ceeec	0.03831379
191	0x3df505ac	0.119639724
192	0x3df47f60	0.11938357
193	0x3e75c9d1	0.24002768
194	0x3e249200	0.1607132
195	0x3d786c68	0.06065026
196	0x3d9a92de	0.07547544
197	0x3e1bf1d3	0.15228967
198	0xbe2856bc	-0.16439337
199	0x3c85daba	0.016339649
200	0xbe210ec9	-0.15728296
201	0x3e0c6ff8	0.13714588
202	0x3ca4792a	0.020077307
203	0xbcc7fa3d	-0.024411315
204	0xbdd3e2c8	-0.103459895
205	0xbddd5185	-0.10806564
206	0x3d039465	0.032123942
207	0xbe4f347f	-0.2023487
208	0x3cf00007	0.029296888
209	0x3e1722f5	0.14759429
210	0xbe6c5efe	-0.23083112
211	0xbe7298a1	-0.23691036
212	0x3df4056a	0.11915095
213	0xbd033c63	-0.03204001
214	0x3ca14214	0.019684829
215	0x3e097a60	0.13425589
216	0x3e1f5046	0.15557966
217	0x3de416da	0.11137171
218	0xbd9ab900	-0.07554817
219	0x3e36e1c7	0.17859565
220	0x3dd80e65	0.105496205
221	0xbe21a0c8	-0.1578399
222	0xbd0fc8dc	-0.035103664
223	0x3de7907f	0.11306857
224	0xbce5e6a5	-0.028064081
225	0xbd1d794c	-0.038445756
226	0xbe095a12	-0.13413265
227	0x3db4e60b	0.0883294
228	0x3dc9afbb	0.09847971
229	0xbe0d00ce	-0.13769838
230	0x3e31a1ff	0.17346953
231	0xbe1adb44	-0.15122706
232	0xbdba320c	-0.09091577
233	0xbda5680c	-0.08076486
234	0x3d329a6e	0.043604307
235	0x3e219d6b	0.15782706
236	0xbe2f18a4	-0.17099243
237	0xbc8766be	-0.016528483
238	0x3e2510e1	0.1611972
239	0xbe85b461	-0.2611418
240	0xbe6023b1	-0.21888615
241	0xbd5d0aa4	-0.053965226
242	0x3ce3e9aa	0.02782138
243	0x3d0afdc9	0.033933435
244	0x3e4ab6d8	0.19796312
245	0x3e51974d	0.20467873
246	0x3de00bc2	0.109397426
247	0xbda5a9a3	-0.08088996
248	0x3d0e457e	0.03473424
249	0x3de0520a	0.10953148
250	0x3d9f0a89	0.07765681
251	0x3eb18213	0.3466955
252	0xbbf72305	-0.0075420165
253	0x3e3531f6	0.1769484
254	0xbc8ca412	-0.017168079
255	0x3e429110	0.1900065

network_body._body_endoder.seq_layers.0.bias f4 [256]
0	0xbaf59db4	-0.0018739016
1	0x3ca57a21	0.020199837
2	0x3c169d1a	0.009192729
3	0xbcee8646	-0.029116761
4	0x3c68ff5a	0.014221037
5	0x3d5c2cd3	0.053753685
6	0x3c272ba9	0.0102032805
7	0x3c14e180	0.0090869665
8	0x3cb907bb	0.022586694
9	0x3cd7d23e	0.026345368
10	0x3c560295	0.013062139
11	0x3c35d662	0.011098476
12	0x3790a13e	1.7241222e-05
13	0x3c8b5374	0.017007567
14	0x3d10171c	0.03517829
15	0xbc021c26	-0.007941281
16	0xbbd8915a	-0.006609124
17	0xbd001bd0	-0.031276524
18	0x3d4e4dc5	0.050367136
19	0xbb0a2fea	-0.0021085688
20	0x3b51f7f9	0.0032038672
21	0x3a4e1edf	0.00078628765
22	0x385a2653	5.2010942e-05
23	0x3d1ef81c	0.038810834
24	0x3cf222a4	0.029557534
25	0x3cfb602b	0.030685505
26	0x3c41f34a	0.01183779
27	0x3c7bc629	0.015367069
28	0x3cd35393	0.025796687
29	0x3d310c60	0.043224692
30	0x3ac988fd	0.0015375909
31	0x3d0f9963	0.03505839
32	0x3d211061	0.03932226
33	0x3d1a74cc	0.037709042
34	0x3cad0627	0.021121098
35	0xba8c80f4	-0.0010719583
36	0xbb73ad32	-0.003718209
37	0xbcc985dc	-0.024599962
38	0xbbb23cb1	-0.005439364
39	0xbbc3b21e	-0.005972161
40	0xbc4fee1d	-0.012691048
41	0x3bbe702a	0.005811711
42	0xbbb64974	-0.0055629555
43	0x3d2afd1f	0.0417453
44	0x3c794e56	0.015216431
45	0x3a83729f	0.0010028667
46	0xbc0455b1	-0.008077071
47	0xbb52592a	-0.0032096603
48	0x3b183804	0.0023226747
49	0x3c532cb1	0.012889073
50	0x3bf8517f	0.0075780745
51	0x3d5c3c21	0.05376828
52	0x3cf401c5	0.029786
53	0x3ccfafec	0.02535244
54	0x3b632d0c	0.0034664301
55	0x3d5cb0db	0.0538796
56	0xbadedd0b	-0.0017003132
57	0x3cfd979a	0.030956078
58	0x3c46f5a7	0.012143529
59	0xbb669be2	-0.0035188128
60	0xbbceb307	-0.006307963
61	0xbaa00220	-0.0012207665
62	0x3c23cf8b	0.009998213
63	0x3ccab022	0.02474219
64	0x3c7e3c45	0.015517299
65	0xbc836969	-0.016041474
66	0x3cc4b160	0.02401036
67	0x3d393021	0.045211915
68	0x3b09cd2e	0.0021026838
69	0x3cbde3cc	0.023179911
70	0x3b4bba79	0.0031086488
71	0xbd233e6d	-0.039854456
72	0x3c1eace3	0.009684774
73	0x3c09aac0	0.008402526
74	0x3d672045	0.05642726
75	0xbb87523c	-0.004129676
76	0xbb598af0	-0.0033194385
77	0x3ca81028	0.020515516
78	0x3d15f1b3	0.036607455
79	0xbd41f88b	-0.04735617
80	0xbc0c906d	-0.008579356
81	0x3ca9ca56	0.020726364
82	0x3c7c429b	0.015396739
83	0x3aa727b5	0.0012752922
84	0x3d262609	0.040563617
85	0x3d09664a	0.033544816
86	0x3cf566d3	0.029956257
87	0x3c5c3141	0.013439477
88	0x3b8bdc0d	0.0042681755
89	0xba10dd32	-0.0005526125
90	0x3cd22428	0.025652006
91	0x3cd74fa1	0.026283087
92	0x3c941814	0.018077888
93	0x3cf54285	0.029938946
94	0x3c960747	0.018314017
95	0x3cb79a05	0.02241231
96	0x3c2f6de6	0.010707354
97	0x3d59c955	0.05317052
98	0x3d7a19d8	0.061059803
99	0x3d01a438	0.03165075
100	0x3aa85d50	0.0012845192
101	0x3c001b6a	0.007819036
102	0x3be30954	0.0069286022
103	0xbc7e1601	-0.015508176
104	0x3bf7a1d7	0.0075571346
105	0xba620017	-0.0008621229
106	0x3cee05fa	0.029055584
107	0xbc14e8c1	-0.009088696
108	0xbc9c2c44	-0.019064076
109	0x3b506a44	0.003180162
110	0xbb8634e5	-0.004095661
111	0x3b0ea86e	0.0021767872
112	0xbc348183	-0.011017206
113	0xba599abd	-0.0008300951
114	0xbc74b6f9	-0.014936202
115	0xbb3823b5	-0.0028097455
116	0x3c526b4f	0.012842967
117	0x3c4ba752	0.012430029
118	0x3d326fb8	0.043563575
119	0x3d2b68d7	0.04184803
120	0x3d084a94	0.03327425
121	0xbc8942a5	-0.016755411
122	0x3ca6b259	0.020348715
123	0x3c21b334	0.0098693855
124	0xbbcc3248	-0.00623158
125	0x3c7b3f7b	0.015334959
126	0x3bfa7c06	0.0076441793
127	0x3c960770	0.018314093
128	0xb8be7ca2	-9.083121e-05
129	0xba4dc47a	-0.00078494067
130	0x3c079d93	0.008277315
131	0x3d2f1e21	0.042753343
132	0xb7fb2e8d	-2.9943209e-05
133	0x3d432a18	0.047647566
134	0x3cb5699f	0.02214509
135	0x3d046eba	0.03233216
136	0x3ca99a05	0.020703325
137	0x3d05e8ec	0.032692835
138	0x3bb9c654	0.0056693945
139	0x3d5aef22	0.05345071
140	0xbc12bdc5	-0.008956377
141	0x3c8577eb	0.016292533
142	0x3cbd4a0e	0.023106601
143	0x3bfe4065	0.0077591413
144	0x3b013c95	0.0019719948
145	0x3bb1093a	0.005402711
146	0xbb985c44	-0.004649671
147	0x3c9e9a14	0.01936058
148	0x3d1afdec	0.037839815
149	0xbc5efb34	-0.013609696
150	0x3c696b62	0.014246793
151	0xbce7c817	-0.028293652
152	0x3cf1a59e	0.029497918
153	0x3cf6adb4	0.030112125
154	0xbc96deac	-0.018416725
155	0x3c3a8a7c	0.011385556
156	0x3cb2d01b	0.021827748
157	0x3d744749	0.059638295
158	0xbc85bad3	-0.016324436
159	0x3c58a7c7	0.013223595
160	0x3c93cbc6	0.018041503
161	0x3d41daa3	0.04732765
162	0x3ce41350	0.02784124
163	0x3d45d266	0.048296355
164	0x3bd37e46	0.006454262
165	0x3c872e81	0.016501667
166	0x3d088383	0.033328544
167	0xba899703	-0.0010497276
168	0xbccee6d5	-0.025256554
169	0x3cb66206	0.022263538
170	0x3cdd2c11	0.026998552
171	0x3ccc224a	0.024918694
172	0x3b7f2dfa	0.0038937316
173	0x3ce520c0	0.027969718
174	0x3cbea358	0.023271248
175	0xbb89acf4	-0.004201526
176	0x3cc8dfab	0.024520716
177	0x3c10e2c0	0.008843124
178	0x3bde2f5d	0.0067805485
179	0x3c6354de	0.013875214
180	0x3c2bff41	0.010497869
181	0x3d2f2cfd	0.042767514
182	0xbbffd1bf	-0.007806986
183	0x3d66b8f8	0.056328744
184	0x3d4f2c68	0.05057946
185	0x3c4706c0	0.012147605
186	0x3ca0286f	0.01955053
187	0x3cd669d5	0.026173512
188	0x3c7fc8d7	0.015611849
189	0xbcd0de01	-0.025496485
190	0x3ba72535	0.005100871
191	0x3c91e5bc	0.017809741
192	0xbc873009	-0.016502397
193	0x3d342d55	0.043988544
194	0xbc0a405c	-0.008438196
195	0x3cf75ab4	0.030194618
196	0x3d06a80b	0.032875102
197	0x3b386186	0.00281343
198	0x3b93dff2	0.0045127803
199	0x3cef6505	0.029222975
200	0x3cac8687	0.021060241
201	0x3c326afa	0.010889763
202	0x3d1eb7d4	0.03874953
203	0xbc7bc0d3	-0.015365797
204	0x3c5e4434	0.013566066
205	0xbc55bf9c	-0.0130461715
206	0x3ced9412	0.02900127
207	0xbbd7ae21	-0.006582037
208	0xbc65ce71	-0.01402627
209	0x3c8403c0	0.01611507
210	0x3ad5c9e6	0.0016310781
211	0x3c6f6372	0.014611112
212	0x3b2b3446	0.0026123687
213	0x3b767eed	0.0037612275
214	0x3d3c3bd0	0.04595548
215	0xbc253233	-0.010082769
216	0x3d27e0aa	0.04098574
217	0xbc87028d	-0.016480708
218	0x3c793763	0.015210959
219	0xbbb5e69a	-0.0055511715
220	0x3d1a9d01	0.037747387
221	0xbc4242d9	-0.011856758
222	0x3cb9beae	0.022673931
223	0x3d267064	0.040634528
224	0x3bf769fd	0.0075504766
225	0xbad1c6b6	-0.0016004655
226	0xbb404891	-0.0029340128
227	0x3cd855a2	0.02640802
228	0xbac6fe32	-0.0015181957
229	0x3c28da20	0.010305911
230	0x3d0a1a45	0.03371646
231	0xbc3d33b8	-0.011547975
232	0xbbfad094	-0.007654259
233	0xbc9dd4d4	-0.019266523
234	0xbba6eccf	-0.0050941478
235	0x3d34d470	0.04414791
236	0xbbe7922d	-0.007066986
237	0xbc22d079	-0.009937399
238	0x3ad4780f	0.0016210097
239	0xbcd35331	-0.025796505
240	0x3c27cece	0.010242177
241	0xbc93c66e	-0.018038955
242	0x3c6be719	0.01439836
243	0x3d84c185	0.064822234
244	0xbc6ef7e1	-0.014585466
245	0x3d024d1f	0.03181183
246	0x3cb11e49	0.021620886
247	0x3d89ca95	0.067280926
248	0x3c842a1c	0.01613336
249	0x3b9d85fc	0.004807232
250	0x3d1c5eb6	0.03817626
251	0x3cf73790	0.030177861
252	0x3b3ba61d	0.0028632947
253	0xbb9fc579	-0.0048758355
254	0xbc532298	-0.012886666
255	0x3d6c59a8	0.05770269

network_body._body_endoder.seq_layers.2.weight f4 [256, 256]
0	0xbdd584fd	-0.10425756
1	0x3c316847	0.010828084
2	0x3e092191	0.13391711
3	0x3c83f7eb	0.016109427
4	0x3da1a38d	0.07892523
5	0xbdbfa144	-0.09356931
6	0x3c9081f2	0.017640088
7	0x3bdce969	0.006741692
8	0x3da310dc	0.079622
9	0xbd0a6b80	-0.033793926
10	0xbd8b019e	-0.06787418
11	0xbd0c1642	-0.034200914
12	0x3d7f7f9d	0.06237756
13	0xbe080973	-0.13284855
14	0x3cd649e0	0.026158273
15	0xbd774a85	-0.0603738
16	0x3dbe98d8	0.093064964
17	0xbc93f6e4	-0.018062063
18	0x3d98325b	0.074314795
19	0xbd116848	-0.03549984
20	0x3df67f4a	0.12035997
21	0x3b69d17f	0.0035677848
22	0x3d74a1ce	0.05972462
23	0xbca9cb59	-0.020726847
24	0x3d62a91f	0.055337068
25	0x3cb1231d	0.021623189
26	0x3d1e4d30	0.03864783
27	0xbd87c3d7	-0.0662915
28	0x3d3f0802	0.046638496
29	0xbd4989a5	-0.049203534
30	0x3d986d38	0.07442707
31	0x3e143872	0.14474657
32	0xbcd6d925	-0.02622659
33	0x3d60b2f3	0.05485816
34	0x3e804132	0.2504974
35	0x3d8f85d9	0.07007951
36	0x3cd13e53	0.025542414
37	0xbd702dbe	-0.058637373
38	0x3cc79496	0.024362843
39	0xbd806f45	-0.06271223
40	0xbb84c6f0	-0.0040520355
41	0x3d5b140c	0.053485915
42	0x3e014cac	0.12626904
43	0xbe0932ea	-0.13398328
44	0xbc0d6950	-0.0086310655
45	0x3d9e70c3	0.07736351
46	0xbb9304eb	-0.0044866703
47	0xbc03a62f	-0.008035227
48	0x3a8330f5	0.0010009097
49	0xbd75ce55	-0.060011227
50	0xbd79e936	-0.061013423
51	0xbcbcef8a	-0.02306344
52	0x3de3ad4c	0.11117038
53	0x3d631581	0.05544043
54	0x3d9b1009	0.07571418
55	0xbe035b79	-0.12827863
56	0x3d9ed74b	0.077559076
57	0x3d8ece25	0.06972913
58	0x3d40bff9	0.04705808
59	0x3d07afc8	0.033126622
60	0xbd520753	-0.051276516
61	0xbdd0fb8c	-0.10204229
62	0xba413c88	-0.00073713856
63	0x3cbfdcb2	0.023420665
64	0x3df5b83c	0.119980305
65	0xbd63561e	-0.05550205
66	0x3d977c9d	0.07396815
67	0x3b06d720	0.0020575002
68	0x3d975ec0	0.07391119
69	0x3df91053	0.12161317
70	0x3e0dc172	0.13843325
71	0xbde6dd91	-0.11272729
72	0xbc5ac4da	-0.013352597
73	0x3e32a6dd	0.17446466
74	0xbd5cf9fa	-0.053949334
75	0x3dddd8fe	0.108324036
76	0xbd0d7fd9	-0.034545753
77	0xb991ea03	-0.00027830907
78	0x3c3e5249	0.011616298
79	0xbd8d7f2e	-0.06909023
80	0x3c72f8fc	0.01482987
81	0x3d09c2a8	0.033632904
82	0xbb91d71d	-0.0044506923
83	0xbdee5bfb	-0.11638638
84	0x3d51310c	0.051072165
85	0x3d840c85	0.064477004
86	0xbdcc79bc	-0.099841565
87	0xbdb8b61c	-0.090191096
88	0xbdba737e	-0.0910406
89	0x3de535ed	0.11191926
90	0xbe0cdf03	-0.13756947
91	0xbd793326	-0.060839795
92	0xbd8fdbd1	-0.070243485
93	0xbc4606ad	-0.012086553
94	0xbd93e8c9	-0.072221346
95	0x3c07efd8	0.008296929
96	0xbcaaa95d	-0.020832712
97	0x3c275684	0.010213498
98	0xbce1d635	-0.027567962
99	0xbd0859da	-0.033288814
100	0x3d860b21	0.065450914
101	0x3d804145	0.06262449
102	0xbcaf2780	-0.02138114
103	0xbd191799	-0.03737602
104	0x3d19fd27	0.03759494
105	0x3c7bbdc7	0.015365071
106	0xbcc64352	-0.024202023
107	0x3c92e4ba	0.017931331
108	0xbda72c84	-0.081627876
109	0xbce96b4f	-0.028493552
110	0x3a674060	0.00088215433
111	0xbcdd0ea2	-0.026984517
112	0xba03f6c3	-0.0005034024
113	0xbc9d3c06	-0.01919366
114	0x3ce2bac0	0.02767694
115	0xbe4f0509	-0.20216765
116	0xbdc9ad67	-0.09847527
117	0xbca75085	-0.020424137
118	0xbd9fced9	-0.07803125
119	0x3bbd6e0d	0.0057809413
120	0xbe026fdb	-0.12737982
121	0xbd304c13	-0.0430413
122	0x3b9a6171	0.004711323
123	0x3ceb969e	0.028758343
124	0xbd7a3753	-0.061087918
125	0xbd9be0fb	-0.07611271
126	0x3df0c612	0.11756529
127	0xbcf29616	-0.029612582
128	0xbd9dba73	-0.07701578
129	0x3da290c8	0.07937771
130	0x3d46ac59	0.048504207
131	0xbc462e2f	-0.012095972
132	0xbd0522cd	-0.03250389
133	0x3ba502ab	0.0050357184
134	0x3d89aa66	0.06721954
135	0x3d2216c7	0.039572503
136	0xbd4098f0	-0.047020853
137	0xbdb945ca	-0.09046514
138	0x3b93697f	0.00449866
139	0x3d28804d	0.041137982
140	0x3da8da78	0.082447946
141	0x3ae4c218	0.0017452864
142	0x3e048525	0.12941416
143	0xbd5ae3e7	-0.05344
144	0xbd114215	-0.03546341
145	0xbd37b626	-0.044851445
146	0xbdf11943	-0.117723964
147	0x3d3ebe57	0.04656824
148	0xbdc1485f	-0.09437632
149	0x3ce515ed	0.027964557
150	0xbc83b84e	-0.016079094
151	0x3d015871	0.031578485
152	0x3d5e845f	0.054325458
153	0xbd5a2cb3	-0.053265285
154	0xbdb8eccf	-0.09029543
155	0x3cbb25d5	0.022845188
156	0x3e1a775a	0.15084592
157	0xbc9435e4	-0.018092103
158	0xbc839be5	-0.016065547
159	0x3da5766d	0.080792286
160	0xbcca5215	-0.024697343
161	0xbd351d63	-0.04421748
162	0xbd9ac9cc	-0.07558021
163	0xbd481500	-0.048848152
164	0xba82e03b	-0.0009985039
165	0xbd7d3cd0	-0.061825573
166	0x3d896bd0	0.06710017
167	0xbdaa8764	-0.08326605
168	0x3c8c1510	0.017099887
169	0x3c13aa26	0.0090127345
170	0xbd78c11d	-0.060731042
171	0x3d316e45	0.04331805
172	0xbda13e9e	-0.078732714
173	0x3cc0519d	0.023476416
174	0xbde9a5cb	-0.114085756
175	0x3d9fce3e	0.078030095
176	0x3e2086d2	0.1567643
177	0x3d43eacb	0.047831338
178	0x3dbb293a	0.09138723
179	0x3dc7d89d	0.097581126
180	0x3db7b167	0.08969384
181	0x3c96405a	0.018341232
182	0x3c7b9b99	0.015356922
183	0xbd03ead3	-0.032206368
184	0xbc5c303d	-0.013439235
185	0x3e5c7304	0.2152825
186	0xbe082e22	-0.13298848
187	0xbc1f3324	-0.009716783
188	0x3d385d79	0.045011017
189	0x3dd471f9	0.10373301
190	0xbdc0f599	-0.09421844
191	0xbd730457	-0.05933031
192	0xbc545b30	-0.012961194
193	0x3d296580	0.041356564
194	0x3cc523e2	0.024064962
195	0xbda00b70	-0.078146815
196	0x39a34b6a	0.0003114597
197	0x3d415e5d	0.047209132
198	0x3db02fc7	0.08602863
199	0x3cb798ec	0.022411786
200	0xbdbb76b1	-0.09153498
201	0x3d986c04	0.07442477
202	0x3e1bc6ff	0.1521263
203	0xbd7d0536	-0.061772548
204	0x3d5ccfec	0.053909227
205	0xbd8e3e33	-0.06945457
206	0x3d36639a	0.04452858
207	0xbc1dde2b	-0.0096354885
208	0x3db9a715	0.090650715
209	0x3c8362df	0.016038356
210	0x3c43de02	0.011954786
211	0xbda6679a	-0.08125229
212	0xbc136320	-0.008995801
213	0xbb88b823	-0.0041723414
214	0xbd189b9c	-0.037257776
215	0x3cf017aa	0.029308159
216	0xbdbedfc3	-0.09320023
217	0x3d922602	0.07136156
218	0x3e0fbba3	0.14036421
219	0x3d139133	0.036027145
220	0x3cd19a2e	0.025586214
221	0x3be566ac	0.007000765
222	0xbdfad1d6	-0.12247054
223	0x3972134d	0.00023086109
224	0xbc8cae1e	-0.01717287
225	0x3c0cdf8f	0.008598222
226	0x3d86dbc4	0.06584886
227	0xbd885948	-0.06657654
228	0x3e2232c5	0.1583968
229	0xbd85aa15	-0.06526581
230	0x3d805367	0.06265908
231	0xbd9d411f	-0.076784365
232	0xbd9ed433	-0.077553175
233	0x3d782032	0.06057758
234	0xbc550cf5	-0.0130035775
235	0x3d806794	0.06269756
236	0xbd079c15	-0.033107836
237	0xbce61043	-0.028083926
238	0xbe0e6635	-0.13906176
239	0xbdd3c65a	-0.10340567
240	0x3d975535	0.07389299
241	0x3cf8c72c	0.03036841
242	0x3d4de8e0	0.050270915
243	0xbcff812a	-0.03118952
244	0xbe0190b6	-0.12652859
245	0xbd3a0f35	-0.04542466
246	0xbcab661a	-0.02092271
247	0xbdd60ef0	-0.10452068
248	0xbcf2ae41	-0.029624106
249	0xbd4ba4dc	-0.04971777
250	0x3d2052cb	0.039141458
251	0xbc7312ff	-0.014836072
252	0x3c29039f	0.010315805
253	0x3ba6b730	0.0050877556
254	0x3cf08225	0.029358933
255	0xbb388ba2	-0.00281594

network_body._body_endoder.seq_layers.2.bias f4 [256]
0	0x3cdcfd42	0.026976231
1	0xbbe432db	-0.0069640703
2	0x3adc75bb	0.0016819754
3	0xbc94871c	-0.018130831
4	0xbbf84089	-0.0075760526
5	0x3c2950ca	0.010334203
6	0x3c81577b	0.015788784
7	0x3c8e88d5	0.017399231
8	0x3a8043b6	0.0009785804
9	0x3d5b41ab	0.053529423
10	0x3cf7e137	0.030258758
11	0x3c2d10ce	0.010563089
12	0x3c5695c6	0.013097232
13	0xbc52982a	-0.012853662
14	0xbc4d390f	-0.012525811
15	0x3cb3857f	0.021914242
16	0x3c1b01d9	0.00946089
17	0x3c529695	0.012853284
18	0x3be915e3	0.007113205
19	0x3d3d27cd	0.046180535
20	0xbd0d4638	-0.034490794
21	0x3b85b3a3	0.0040802523
22	0x3b52ab67	0.003214562
23	0x3d09e8e3	0.033669364
24	0xbb108855	-0.0022053916
25	0x3cd5122e	0.026009645
26	0x3d00a732	0.03140945
27	0x3c32ae49	0.010905811
28	0x3c9ee182	0.01939464
29	0xbc394ab4	-0.0113093145
30	0x3cbfb806	0.023403179
31	0x3c88def2	0.016707871
32	0x3d1e8dd0	0.03870946
33	0x3cac333b	0.021020522
34	0xbbeb47a0	-0.007180169
35	0x3a763ba3	0.0009393042
36	0x3c826556	0.015917461
37	0x3c2c55a4	0.010518465
38	0x3d28e4ce	0.04123383
39	0x3a33ea8b	0.0006863258
40	0xbb8af3ad	-0.004240474
41	0x3cd2401d	0.025665337
42	0x3d13f825	0.03612532
43	0x3cc65ac0	0.024213195
44	0xbc3eb702	-0.011640312
45	0x3c3e31d0	0.011608556
46	0x3c78b5f1	0.015180097
47	0x3be676b6	0.0070331944
48	0x3c2878a3	0.010282668
49	0x3b61716b	0.0034399878
50	0x3c233d2e	0.009963317
51	0xbc001303	-0.007817033
52	0x3c3849a6	0.011248028
53	0x3bbdea8d	0.005795783
54	0x3c855b36	0.016278844
55	0x3cabba55	0.020962873
56	0xbc0c556a	-0.008565286
57	0x3b51d334	0.0032016756
58	0xbacd4bfa	-0.0015662902
59	0x3cc3b36a	0.023889262
60	0x3cf1dfc4	0.029525645
61	0x3ba36a96	0.0049870713
62	0x3d106420	0.035251737
63	0x3d5a6526	0.05331912
64	0x3d340027	0.043945458
65	0x3bd04ab9	0.006356564
66	0xbcc0a15e	-0.023514446
67	0xbc4437b9	-0.011976176
68	0x3c17f92a	0.009275714
69	0xbba0d7a7	-0.0049085203
70	0x3c6947ba	0.014238292
71	0xbc86dae8	-0.016461805
72	0x3d4905c3	0.04907776
73	0x3b0e9780	0.0021757782
74	0x3c62c0c4	0.013839904
75	0xbc1bfd8d	-0.0095209
76	0x3d06838b	0.032840293
77	0xbc144d19	-0.009051585
78	0x3b3d47a7	0.002888182
79	0x3b0b0cef	0.0021217426
80	0x3c2d9946	0.010595625
81	0x3c676bf7	0.014124862
82	0x3bf67873	0.007521683
83	0x3d480590	0.04883343
84	0x3ce97d1a	0.028502036
85	0x3c781a18	0.01514294
86	0x3c533d1a	0.012892986
87	0x39264019	0.00015854872
88	0x3bcc0ee3	0.0062273606
89	0x3d1e793b	0.038689833
90	0xbbd1b44b	-0.0063996664
91	0xbb97e4a2	-0.0046354095
92	0x3c5d86b9	0.01352089
93	0xbc5d534d	-0.01350863
94	0xbbecceea	-0.0072268145
95	0xbaa31e6e	-0.0012444982
96	0x3bd7b109	0.0065823835
97	0x3cae767f	0.021296738
98	0xbc37fe38	-0.011230044
99	0xbc608114	-0.01370265
100	0xbb7ec83f	-0.003887668
101	0x3c9349e3	0.017979568
102	0x3b951ee8	0.0045508035
103	0x3ce935e3	0.028468078
104	0x3cd3b4b5	0.025843004
105	0x3cd2d19f	0.02573472
106	0x3cfa56be	0.03055894
107	0x3becf793	0.0072316616
108	0x3d075cdb	0.03304754
109	0xbc637cb1	-0.013884709
110	0xbc50176c	-0.012700897
111	0x3b95113b	0.004549173
112	0x3bf13d2a	0.0073620277
113	0xbb1e391a	-0.0024142922
114	0x3b0ad5ab	0.0021184485
115	0xbb97a067	-0.0046272757
116	0x3d0b55d2	0.03401739
117	0x3ce32b95	0.027730742
118	0x3cfa1c93	0.030531203
119	0xbbd8ecf9	-0.006620046
120	0x3d0d21ea	0.03445617
121	0x3c52f3eb	0.012875537
122	0x3d111c03	0.035427105
123	0x3d01ee1c	0.03172122
124	0x3cbb0356	0.02282874
125	0x3d6e2ead	0.058149982
126	0xbaaeaa2b	-0.001332586
127	0xbbe84ded	-0.0070893676
128	0x3cd6f532	0.026239965
129	0x3cddb0a0	0.02706176
130	0xbc93ecf9	-0.018057333
131	0xba2eb74b	-0.0006664886
132	0x3ce2294d	0.027607584
133	0x3c95e7c5	0.018298993
134	0x3bf09a19	0.0073425886
135	0xbc915f65	-0.017745683
136	0x3baa9132	0.005205297
137	0xbb77ccab	-0.00378112
138	0x3c36c725	0.011155878
139	0x3cbd3226	0.023095202
140	0x3d255807	0.040367153
141	0x3d2734e0	0.04082191
142	0x3d635f9a	0.055511095
143	0x3ce24c8f	0.027624397
144	0x3bb46827	0.00550558
145	0x3a1b8758	0.00059329486
146	0x3c1c131e	0.009526042
147	0x38776e55	5.8992144e-05
148	0xbbdc1043	-0.0067158057
149	0x3cdd1aea	0.026990373
150	0xbb14998c	-0.002267453
151	0xbc81e0ff	-0.015854357
152	0x3bf21f45	0.0073889815
153	0xba5591c7	-0.00081470277
154	0x3cb5eec9	0.022208588
155	0xbc5a280c	-0.013315212
156	0x3cdeeae8	0.027211621
157	0xbc2f39e7	-0.010694957
158	0x3d141892	0.036156245
159	0xbc2e1feb	-0.010627727
160	0x3c311005	0.010807042
161	0xbb029849	-0.0019927195
162	0x3bfb6506	0.007671955
163	0xb9f41961	-0.00046558215
164	0xba9e9fb8	-0.0012102043
165	0x3cb3f0f5	0.021965483
166	0x3a1ca062	0.00059748266
167	0x3ccbc33f	0.024873374
168	0x3c476a99	0.012171411
169	0x3c5bbcc7	0.013411707
170	0x3c237383	0.009976271
171	0x3cb65f54	0.022262253
172	0x3b452e31	0.0030087347
173	0x3c9a33ef	0.018823592
174	0xbbf8dfde	-0.0075950464
175	0x3c313c42	0.010817589
176	0xbb9c9e40	-0.004779607
177	0x3b5b412d	0.0033455596
178	0xbc2875ae	-0.010281963
179	0x3bcecaa0	0.006310776
180	0xbbd28f46	-0.006425771
181	0x3a328d12	0.0006811182
182	0x3c882df1	0.01662347
183	0xbc18d0b5	-0.009327103
184	0xbc83f0f9	-0.016106116
185	0x3d10ccf2	0.0353517
186	0x3cbedab9	0.023297654
187	0xbc0c3a8c	-0.008558881
188	0x3c5a16b3	0.013311076
189	0x3cecde5e	0.028914627
190	0x3c79ee21	0.015254528
191	0x3d100249	0.03515843
192	0x3bfa6b9d	0.007642223
193	0x3b1b6b0c	0.0023714928
194	0x3c877884	0.016536959
195	0xbc46d39d	-0.0121354135
196	0x3cc251ed	0.023720706
197	0x3c9fc7d5	0.019504467
198	0x3c19e64f	0.009393289
199	0xbba92e44	-0.005162986
200	0xbb7eb560	-0.0038865432
201	0x3cd21f0c	0.02564957
202	0x3ccf9763	0.025340742
203	0x3ccd7765	0.025081346
204	0x3c699ede	0.014259068
205	0x3ced6d27	0.028982712
206	0x3b9a8748	0.004715834
207	0x3c0e82ad	0.008698148
208	0xbc4910b0	-0.012272045
209	0xbc8edefc	-0.017440312
210	0x3ca9ed56	0.020743053
211	0xbbcbe202	-0.0062220106
212	0x3d260847	0.040535238
213	0x3c925b6d	0.01786586
214	0x3cc4c0e0	0.024017751
215	0x3c4efb4a	0.012633154
216	0x3ca63fb3	0.020294046
217	0xbc29dd36	-0.010367682
218	0x3d1bde65	0.03805389
219	0xbb695d6f	-0.003560867
220	0xbc667ce8	-0.014067866
221	0xbabce217	-0.0014410642
222	0x3c2d6830	0.010583922
223	0x3d05cf5f	0.032668468
224	0x3c950323	0.018189972
225	0x3cbbbfa7	0.022918535
226	0x3999e8fd	0.00029356024
227	0x3d1dcca1	0.038525227
228	0xbce9e069	-0.02854939
229	0x3a17e373	0.00057940854
230	0x3c3e4c11	0.011614815
231	0x3c80d407	0.015726103
232	0x3c3a3586	0.0113653
233	0xbbc12593	-0.005894372
234	0x3b791583	0.0038007207
235	0x3af93c12	0.0019015095
236	0x3c32fdef	0.0109248
237	0x3c8056af	0.015666334
238	0x3bc17226	0.0059035
239	0xbae8cc5e	-0.0017761101
240	0x3c7ecccb	0.015551756
241	0x3ce32df7	0.027731879
242	0x3c8e2410	0.01735118
243	0xbc0b6405	-0.008507733
244	0x3c075743	0.008260551
245	0x3c2b7555	0.010464986
246	0x3c951286	0.01819731
247	0x3cd30a5f	0.025761781
248	0xba8621c4	-0.0010233452
249	0x3d050701	0.032477383
250	0xbbd4417a	-0.006477532
251	0xbbe37828	-0.006941814
252	0x3cc5afef	0.024131743
253	0xbc0f9399	-0.008763217
254	0xb8234441	-3.8925795e-05
255	0xbbd693c5	-0.006548377

action_model._continuous_distribution.log_sigma f4 [1, 5]
0	0xbe53bbde	-0.20677134
1	0xbe0b4418	-0.13600194
2	0xbe1973fb	-0.1498565
3	0xbdb42e09	-0.08797843
4	0xbd09d748	-0.033652574

action_model._continuous_distribution.mu.weight f4 [5, 256]
0	0xbd176487	-0.036961105
1	0x3a85e33e	0.0010214818
2	0xbd7b1c68	-0.061306387
3	0xbcef985e	-0.029247459
4	0xbbfe99b8	-0.0077697895
5	0x3d0ac9c6	0.033883832
6	0x3c7579e0	0.014982671
7	0xbcb4a4fd	-0.022051329
8	0xbda3edf0	-0.08004367
9	0x3c696d05	0.014247184
10	0xbd1ddf4d	-0.038543034
11	0x3d427fb5	0.047485072
12	0xbda1c299	-0.07898445
13	0x3d518e96	0.05116137
14	0xbcaa4774	-0.020786025
15	0x3c6a9c97	0.0143195605
16	0xbcc834a2	-0.02443916
17	0xbd195fea	-0.037444986
18	0xbd7fdf31	-0.06246871
19	0x3d83cd2a	0.06435616
20	0x3b302f34	0.0026883604
21	0xbc96277a	-0.01832937
22	0x3c706ccb	0.014674376
23	0xbdace1b2	-0.084414855
24	0x3a9c48a0	0.0011923499
25	0x3cbeadd1	0.023276241
26	0x3ba30dcc	0.00497601
27	0x3d30a7bc	0.043128714
28	0x3cf4b164	0.029869743
29	0x3c740ec0	0.014896095
30	0x3c8cefe4	0.017204233
31	0xbc7f15d7	-0.015569172
32	0x3c271ce1	0.010199756
33	0xbd414aa0	-0.04719031
34	0x3ceb8f31	0.028754802
35	0x3d3d28a4	0.046181336
36	0x3d7d4026	0.061828755
37	0xbd9c8faa	-0.07644589
38	0xbca0f1da	-0.019646574
39	0xbc81c1dc	-0.01583951
40	0x3b8626f0	0.004093997
41	0xbd53a3e9	-0.05166999
42	0x3cb236bf	0.02175462
43	0x3df50c89	0.119652815
44	0xbd16f669	-0.03685609
45	0xbca25cc8	-0.019819632
46	0xbb205f9b	-0.0024471048
47	0x3c0d0303	0.008606675
48	0xbd1c4b31	-0.038157646
49	0xbd9cf14a	-0.0766321
50	0xbc3d0e15	-0.011539002
51	0xbc4db85a	-0.01255616
52	0xbd0159cb	-0.031579774
53	0xbbdd6dce	-0.0067574745
54	0xbc2e3921	-0.010633738
55	0x3d0ffde6	0.035154246
56	0x3cd690b1	0.026192041
57	0xbd28f9e3	-0.041253936
58	0x3c90e6b0	0.017688125
59	0xbda71555	-0.08158366
60	0x3d12ee67	0.03587189
61	0xbd02d6be	-0.031943075
62	0x3d7502d1	0.05981714
63	0x3ce502ac	0.027955376
64	0x3b75b7e7	0.0037493648
65	0xbd36d66e	-0.04463809
66	0xbb8d9602	-0.004320861
67	0x3c3f6675	0.0116821425
68	0xbd18b63b	-0.037283164
69	0xbd680429	-0.056644592
70	0x3c34d0c1	0.011036099
71	0x3c82e1e7	0.01597686
72	0xbc9107c0	-0.01770389
73	0x3d119972	0.035546727
74	0xbcd0dccd	-0.025495911
75	0xbc61a0fc	-0.013771292
76	0x3bae738c	0.005323833
77	0xbc4eef76	-0.012630334
78	0x3d525a83	0.05135585
79	0x3d546590	0.05185467
80	0x3afd9796	0.0019347544
81	0x3d35e688	0.044409305
82	0xbd9fd7c6	-0.078048274
83	0x3d837701	0.064191826
84	0x3c36cb3e	0.011156855
85	0xbd1543fd	-0.03644179
86	0x3d1517f1	0.036399785
87	0xbc164083	-0.009170654
88	0x3c272e55	0.0102039175
89	0x3d1b6fc8	0.0379484
90	0xbcff170d	-0.031138921
91	0xbc5ee408	-0.013604172
92	0x3c8369c4	0.016041644
93	0xbd1a041a	-0.037601568
94	0x3d27f206	0.041002296
95	0x3d588d35	0.05286904
96	0xbd8f9e0d	-0.07012568
97	0x3bc789ed	0.00608944
98	0xbcfc8167	-0.030823423
99	0x3c7d8f54	0.015476067
100	0xbd8700ef	-0.06591975
101	0x3d8b9139	0.068148084
102	0xbd5b2e08	-0.053510696
103	0x3ca3c2e5	0.019990394
104	0x3cead6bd	0.028666848
105	0xbd02923b	-0.031877737
106	0x3ca37538	0.019953355
107	0xbdbd9edd	-0.092588164
108	0x3c80d35d	0.015725786
109	0x3a85eb99	0.0010217308
110	0xbcc0c725	-0.02353246
111	0x3daaa8a5	0.08332948
112	0xbca68952	-0.020329151
113	0x3d38f667	0.045156863
114	0xbc8cd9bb	-0.017193666
115	0x3d0f0bd6	0.034923397
116	0x3d09bbfa	0.033626534
117	0xbd123865	-0.035698313
118	0xbd2d10d7	-0.042252388
119	0x3d007859	0.031364772
120	0xbcf17e38	-0.029479131
121	0xbc7711c7	-0.015079922
122	0xbceedba8	-0.029157475
123	0xbc9a90d2	-0.018867884
124	0x3c3bbe9e	0.011459021
125	0x3cf36791	0.02971247
126	0x3ccd7ff4	0.025085427
127	0x3c700c65	0.014651393
128	0xbda72c3c	-0.08162734
129	0xbad60a74	-0.001633002
130	0x3ab8478c	0.0014059409
131	0xbc3794f6	-0.011204949
132	0x3b237c13	0.002494578
133	0x3c575afb	0.01314425
134	0xbce2ece4	-0.027700849
135	0x3cc28b7c	0.023748152
136	0xbd020782	-0.03174544
137	0xbb602ad9	-0.0034205227
138	0x3d4d95ea	0.050191797
139	0xbc6de44b	-0.014519761
140	0x3d13b513	0.036061358
141	0x3c2a7052	0.010402756
142	0x3cd85d62	0.026411716
143	0x3d5bb693	0.053640913
144	0x3c84bead	0.016204203
145	0xbd4cc478	-0.049992055
146	0xbc7d7637	-0.015470079
147	0x3b7fedf1	0.0039051736
148	0xbc56c481	-0.013108374
149	0xbce79bda	-0.028272558
150	0x3d986afe	0.07442282
151	0xbc0b0ea1	-0.0084873745
152	0xbd342945	-0.04398467
153	0x3ce000e4	0.027344175
154	0x3ca62474	0.020281054
155	0x3c06532d	0.008198542
156	0xbd4ccddc	-0.05000101
157	0xbcbb8c1a	-0.022893954
158	0xbd97d175	-0.07412998
159	0x3bea0feb	0.007143011
160	0x3b608ee5	0.003426486
161	0xbd01cac8	-0.031687528
162	0xbc0b8563	-0.008515689
163	0x3ce6fe25	0.028197357
164	0xbc97c8d5	-0.018528381
165	0x3d7067e0	0.058692813
166	0x3d7bada7	0.061444905
167	0xbc8d3d0a	-0.01724102
168	0xbbfc4dd5	-0.007699708
169	0xbd7a6873	-0.061134767
170	0xbd03011a	-0.031983472
171	0xbdcac28c	-0.09900388
172	0xbd46b002	-0.048507698
173	0xbc14deaf	-0.009086295
174	0x3d59ad8a	0.053144015
175	0x3cd168f2	0.025562737
176	0xbab2de79	-0.0013646624
177	0xbccb411c	-0.02481132
178	0x3d1c51c6	0.038163923
179	0xbc9e551c	-0.019327693
180	0x3d213a40	0.039362192
181	0x3d6920aa	0.056915917
182	0xbcf6d1c2	-0.030129317
183	0x3d0b8674	0.03406377
184	0x3c56406f	0.013076886
185	0xbc3145c1	-0.010819853
186	0xbbf134e3	-0.007361041
187	0x3d8a0426	0.067390725
188	0xb9dd840d	-0.0004225079
189	0xbd341ec7	-0.043974664
190	0x3cf41277	0.029793961
191	0x3b7819e1	0.0037857222
192	0x3d99889f	0.074967615
193	0x3b23288f	0.0024896
194	0x3d33ce3e	0.04389786
195	0x3d58aef7	0.052901234
196	0x3c2b2a7a	0.010447139
197	0xbc2793bd	-0.010228095
198	0x3d21c73b	0.03949664
199	0x3d89fb0e	0.06737338
200	0xbd7d74e4	-0.061879054
201	0x3c8b2a66	0.01698799
202	0x3cc99fd0	0.024612337
203	0xbc24cf74	-0.010059226
204	0x3b00ee0a	0.0019673132
205	0xbc774f98	-0.01509466
206	0xbd8aa7ae	-0.067702636
207	0xbc38ea6f	-0.011286362
208	0x3d015fb6	0.031585418
209	0xbd01c31e	-0.03168022
210	0x3cd54ebf	0.026038526
211	0xbd5b2f7f	-0.053512093
212	0x3b5b0b2e	0.0033423412
213	0x3ba372c6	0.0049880473
214	0xbd7ca590	-0.06168133
215	0x3d3054d8	0.043049663
216	0x3b814d2e	0.003945968
217	0x3c71456c	0.014726024
218	0xbc3fa2f5	-0.011696567
219	0xbcabf932	-0.020992849
220	0xbd4c36ec	-0.049857065
221	0x3d257d54	0.040402725
222	0x3d511a98	0.051050752
223	0x3b3ade23	0.0028513751
224	0xbbd8900a	-0.0066089677
225	0xbc8cee56	-0.017203491
226	0xbb8c74c4	-0.0042863805
227	0x395c71d1	0.00021023235
228	0xbc871170	-0.016487807
229	0x3c50d2c4	0.012745563
230	0xbde29c3b	-0.11064955
231	0xbb5efcbb	-0.003402515
232	0x3be99400	0.0071282387
233	0xbc9b946f	-0.018991677
234	0xbd54ec2c	-0.051983044
235	0x3d1b91ab	0.037980717
236	0x3d129881	0.03578997
237	0xbd467ffe	-0.048461907
238	0xbda2e862	-0.0795448
239	0xbd23fe4a	-0.04003743
240	0xbd2e080d	-0.042488147
241	0x3db0d134	0.08633652
242	0xbbf0b4b3	-0.00734576
243	0x3d0f55bd	0.034993876
244	0xbd8fdabf	-0.070241444
245	0x389aa58e	7.374129e-05
246	0xbbd42097	-0.0064736116
247	0xbd832223	-0.064029954
248	0x3d2b414f	0.04181033
249	0x3db71d18	0.08941096
250	0x3c1ce18a	0.009575257
251	0x3c37533e	0.01118928
252	0x3c4f4867	0.012651539
253	0x3d5829bd	0.05277418
254	0x3d53a27f	0.05166864
255	0xbc0af8e7	-0.0084821945

action_model._continuous_distribution.mu.bias f4 [5]
0	0x3b14402d	0.002262126
1	0x3cd684e9	0.026186423
2	0xbbd6c7b1	-0.006554567
3	0x3c8351d2	0.016030226
4	0x3bbc501d	0.005746855
